RRN(
  (neuro): neuro(
    (conv_1): Conv2d(182, 128, kernel_size=(3, 3), stride=(1, 1), padding=(1, 1))
    (recon_trunk): Sequential(
      (0): ResidualBlock_noBN(
        (conv1): Conv2d(128, 128, kernel_size=(3, 3), stride=(1, 1), padding=(1, 1))
        (conv2): Conv2d(128, 128, kernel_size=(3, 3), stride=(1, 1), padding=(1, 1))
      )
      (1): ResidualBlock_noBN(
        (conv1): Conv2d(128, 128, kernel_size=(3, 3), stride=(1, 1), padding=(1, 1))
        (conv2): Conv2d(128, 128, kernel_size=(3, 3), stride=(1, 1), padding=(1, 1))
      )
      (2): ResidualBlock_noBN(
        (conv1): Conv2d(128, 128, kernel_size=(3, 3), stride=(1, 1), padding=(1, 1))
        (conv2): Conv2d(128, 128, kernel_size=(3, 3), stride=(1, 1), padding=(1, 1))
      )
      (3): ResidualBlock_noBN(
        (conv1): Conv2d(128, 128, kernel_size=(3, 3), stride=(1, 1), padding=(1, 1))
        (conv2): Conv2d(128, 128, kernel_size=(3, 3), stride=(1, 1), padding=(1, 1))
      )
      (4): ResidualBlock_noBN(
        (conv1): Conv2d(128, 128, kernel_size=(3, 3), stride=(1, 1), padding=(1, 1))
        (conv2): Conv2d(128, 128, kernel_size=(3, 3), stride=(1, 1), padding=(1, 1))
      )
    )
    (conv_h): Conv2d(128, 128, kernel_size=(3, 3), stride=(1, 1), padding=(1, 1))
    (conv_o): Conv2d(128, 48, kernel_size=(3, 3), stride=(1, 1), padding=(1, 1))
  )
  (down): PixelUnShuffle(upscale_factor=4)
)
Model size: 7.20428M
===> 5L model has been initialized
===> load pretrained model
===> pretrained model is load
===> Loading test Datasets
===> DataLoading Finished
===> Timer: 0.4304 sec.
PSNR: 29.350308 dB, 	SSIM: 0.826150
PSNR: 29.994843 dB, 	SSIM: 0.853990
PSNR: 30.296624 dB, 	SSIM: 0.866327
…
