RRN(
  (neuro): neuro(
    (conv_1): Conv2d(182, 128, kernel_size=(3, 3), stride=(1, 1), padding=(1, 1))
    (recon_trunk): Sequential(
      (0): ResidualBlock_noBN(
        (conv1): Conv2d(128, 128, kernel_size=(3, 3), stride=(1, 1), padding=(1, 1))
        (conv2): Conv2d(128, 128, kernel_size=(3, 3), stride=(1, 1), padding=(1, 1))
      )
      (1): ResidualBlock_noBN(
        (conv1): Conv2d(128, 128, kernel_size=(3, 3), stride=(1, 1), padding=(1, 1))
        (conv2): Conv2d(128, 128, kernel_size=(3, 3), stride=(1, 1), padding=(1, 1))
      )
      (2): ResidualBlock_noBN(
        (conv1): Conv2d(128, 128, kernel_size=(3, 3), stride=(1, 1), padding=(1, 1))
        (conv2): Conv2d(128, 128, kernel_size=(3, 3), stride=(1, 1), padding=(1, 1))
      )
      (3): ResidualBlock_noBN(
        (conv1): Conv2d(128, 128, kernel_size=(3, 3), stride=(1, 1), padding=(1, 1))
        (conv2): Conv2d(128, 128, kernel_size=(3, 3), stride=(1, 1), padding=(1, 1))
      )
      (4): ResidualBlock_noBN(
        (conv1): Conv2d(128, 128, kernel_size=(3, 3), stride=(1, 1), padding=(1, 1))
        (conv2): Conv2d(128, 128, kernel_size=(3, 3), stride=(1, 1), padding=(1, 1))
      )
    )
    (conv_h): Conv2d(128, 128, kernel_size=(3, 3), stride=(1, 1), padding=(1, 1))
    (conv_o): Conv2d(128, 48, kernel_size=(3, 3), stride=(1, 1), padding=(1, 1))
  )
  (down): PixelUnShuffle(upscale_factor=4)
)
Model size: 7.20428M
===> 5L model has been initialized
===> load pretrained model
===> pretrained model is load
===> Loading test Datasets
===> DataLoading Finished
===> Timer: 0.4403 sec.
PSNR: 22.617721 dB, 	SSIM: 0.746748
PSNR: 22.992686 dB, 	SSIM: 0.767840
PSNR: 23.376247 dB, 	SSIM: 0.787755
…
